titanic_model.tflite (tflite, 15448 bytes, 5 tensors)

arith.constant f4 [1, 40]
0	0xbeba0858	-0.3633449
1	0x3e9436ed	0.28948155
2	0xbdc58ce0	-0.096460104
3	0xbe79aee3	-0.2438312
4	0x3e85db75	0.26143995
5	0x3ecdfc8a	0.40231735
6	0x3ef2e312	0.47438866
7	0x3dd4becf	0.10387956
8	0x3e8de911	0.27716878
9	0xbe8da394	-0.27663863
10	0xbe4367b2	-0.19082525
11	0x3efeed04	0.49790204
12	0xbeac2b8d	-0.33626977
13	0x3e6d4cd7	0.23173843
14	0x3e7c2e00	0.24626923
15	0xbebf439a	-0.37356263
16	0x3e93e45f	0.2888517
17	0xbe544673	-0.20729999
18	0xbe191ef8	-0.1495322
19	0x3ee6b6b2	0.4506126
20	0x3e84ee90	0.2596326
21	0x3e22b5db	0.15889685
22	0xbd9d3bda	-0.076774314
23	0xbea24727	-0.3169491
24	0x3f14ea28	0.58169794
25	0x3ef0baaa	0.47017413
26	0xbcf55b06	-0.02995063
27	0x3daf7ba6	0.08568506
28	0x3ee600ee	0.44922584
29	0xbe4f7563	-0.20259623
30	0xbe30f045	-0.17279156
31	0xbe04784e	-0.12936518
32	0xbe9a9ae4	-0.30196297
33	0x3ee6d5ab	0.4508489
34	0xbee0aa4b	-0.43879923
35	0xbe0509fe	-0.12992093
36	0xbe2d0d71	-0.16899659
37	0xbe842cda	-0.2581547
38	0xbee0aed2	-0.43883377
39	0x3ef97427	0.4872143

arith.constant1 f4 [40, 64]
0	0x3e224c2e	0.15849373
1	0x3d7c82c8	0.06164816
2	0xbe251604	-0.1612168
3	0xbd829280	-0.06375599
4	0x3e541cf8	0.20714176
5	0xbdb77816	-0.089584514
6	0x3e04d71c	0.12972683
7	0xbe0bc635	-0.13649829
8	0x3dcdcb8a	0.100485876
9	0xbe8cda8f	-0.27510497
10	0xbc1adde1	-0.009452314
11	0x3e26209f	0.16223381
12	0x3cbe0696	0.0231965
13	0x3e1b5909	0.15170683
14	0xbe1f1fed	-0.15539522
15	0x3d58b788	0.052909404
16	0x3e7cb859	0.24679698
17	0xbeb83d56	-0.35984296
18	0x3c1f12a6	0.009709036
19	0xbc9ab860	-0.018886745
20	0xbd147e2d	-0.036253143
21	0x3d2f5ac9	0.04281119
22	0x3db39688	0.08768946
23	0xbd1f15a6	-0.038839005
24	0x3ebb41d1	0.3657365
25	0x3dd4dff6	0.1039428
26	0xbebc571b	-0.36785206
27	0x3e21a3ea	0.15785185
28	0xbdc44542	-0.095835224
29	0x3e859093	0.26086864
30	0xbd2e3a70	-0.0425362
31	0x3df4fbfe	0.11962126
32	0x3e403e7a	0.18773833
33	0x3e41bd07	0.18919764
34	0xbd486c5a	-0.048931457
35	0x3ebdd6eb	0.37078032
36	0x3e379b1f	0.17930268
37	0xbe32d88b	-0.17465417
38	0xbcab8548	-0.020937577
39	0x3e8c306f	0.27380702
40	0xbca2b096	-0.019859593
41	0xbe1e916f	-0.15485166
42	0x3d797899	0.060906027
43	0x3c9eb390	0.019372731
44	0x3d365f3d	0.04452442
45	0xbd8a9e64	-0.06768492
46	0xbe827265	-0.254779
47	0xbe74466b	-0.23854987
48	0x3e27acbe	0.1637449
49	0x3e12577e	0.14291188
50	0xbe0765f9	-0.13222493
51	0x3dc180ec	0.09448418
52	0xbe97b2ef	-0.29628703
53	0x3cec00c0	0.028808951
54	0xbd550ff2	-0.05201716
55	0x3a5c364a	0.00084004237
56	0xbc9d9d30	-0.019239992
57	0x3ddfc1b0	0.10925615
58	0xbecd2fcd	-0.40075532
59	0x3d624f24	0.055251256
60	0x3dff179a	0.124556735
61	0xbd1e64da	-0.0386704
62	0xbd8c029f	-0.068364374
63	0xbe9252d3	-0.28578815
64	0x3e3313dd	0.17488046
65	0x3c623e7e	0.013808845
66	0xbe104c09	-0.14091505
67	0x3e11b0e3	0.14227633
68	0x3d6f4e11	0.05842406
69	0x3d9677d0	0.07347071
70	0x3e345a90	0.17612672
71	0x3dba6e12	0.091030255
72	0x3daea416	0.08527391
73	0xbe038b5d	-0.12846132
74	0x3e4a8f21	0.19781162
75	0x3c96a558	0.018389389
76	0x3d3a478b	0.045478385
77	0xbdeb44b3	-0.11487713
78	0x3e20c620	0.15700579
79	0x3de29efc	0.1106548
80	0xbd898b4f	-0.06716024
81	0x3dd5c3d2	0.104377404
82	0xbdab25a4	-0.08356789
83	0xbdad618f	-0.084658735
84	0x3d13eb73	0.036113214
85	0xbc90ace9	-0.017660575
86	0x3e67a5e6	0.22621879
87	0x3edf55cb	0.43620142
88	0xbc83217d	-0.01600718
89	0xbd010648	-0.03150013
90	0x3df4fd43	0.11962368
91	0xbb858d76	-0.0040757013
92	0x3d74cf7f	0.059768196
93	0xbd6fe720	-0.058570027
94	0x3ce2cfd8	0.027686998
95	0xbd2f1c69	-0.042751703
96	0x3e01ca25	0.12674768
97	0xbe86a8d2	-0.26300675
98	0x3d4af6ca	0.049551763
99	0x3cb43f57	0.022002859
100	0xbd7bbe5a	-0.06146083
101	0x3e1b17fc	0.15145868
102	0xbe4c5f6a	-0.19958273
103	0xbe12e11d	-0.14343686
104	0xbe71265d	-0.2354979
105	0xbec07828	-0.37591672
106	0x3dca7d3b	0.09887167
107	0xbe01c074	-0.12671071
108	0xbd23de44	-0.04000689
109	0x3e7cd282	0.24689677
110	0x3de98df2	0.11404027
111	0xbd5a783c	-0.05333732
112	0xbe318416	-0.17335543
113	0x3e06cf22	0.13164952
114	0xbdc5f40d	-0.096656896
115	0x3e7c68fd	0.24649425
116	0x3e3057c0	0.17220974
117	0xbe528841	-0.20559789
118	0x3ead5eda	0.33861428
119	0xbe38632e	-0.18006584
120	0x3e1e6ac4	0.15470415
121	0xbdbb7f8b	-0.09155186
122	0x3ec43f2e	0.38329452
123	0xbe3f7364	-0.18696362
124	0xbc3bcc36	-0.011462262
125	0x3e8b189f	0.27167222
126	0xbce3f1ab	-0.027825197
127	0x3d79cf0a	0.060988463
128	0xbe37f69e	-0.1796517
129	0xbc90b148	-0.01766266
130	0x3d82a458	0.06379002
131	0x3cf8fe96	0.030394834
132	0x3d606ea4	0.054793015
133	0x3e2638fa	0.16232672
134	0xbdcc4616	-0.09974305
135	0xbe915f6c	-0.28393114
136	0xbcc7d466	-0.024393272
137	0x3e58ae9c	0.21160358
138	0x3e87ecca	0.26547843
139	0x3e18b544	0.14912897
140	0x3e59e0fc	0.21277231
141	0x3e9552a0	0.291646
142	0xbe6dabb8	-0.23210037
143	0xbe22af66	-0.15887222
144	0x3dd97aac	0.10619101
145	0xbd9eecaa	-0.07759984
146	0x3bad8027	0.005294818
147	0x3db82736	0.08991854
148	0xbd045b9d	-0.03231393
149	0x3d8c5237	0.06851619
150	0x3e47b7c4	0.19503695
151	0xbea452a9	-0.32094315
152	0x3e9fc115	0.31201997
153	0x3e70a902	0.23501971
154	0xbe7a5eac	-0.24450177
155	0xbcd4bc39	-0.025968658
156	0x3b9fb854	0.0048742685
157	0xbc2bbd35	-0.010482122
158	0x3e8a9560	0.2706709
159	0x3dc475f8	0.09592813
160	0x3e2a7c69	0.16649021
161	0xbdb6d7c0	-0.0892787
162	0x3e384692	0.1799567
163	0x3ec947ba	0.39312536
164	0xbdc3ed6e	-0.095667705
165	0x3e8cb1e0	0.27479458
166	0x3e05e50d	0.13075657
167	0xbe20a14d	-0.15686531
168	0xbd0f0bfb	-0.034923535
169	0x3c1b50d0	0.009479716
170	0xbd27f0b2	-0.04100103
171	0xbe244d56	-0.16045126
172	0x3db51a53	0.088429116
173	0x3c7e1c36	0.015509656
174	0x3dcc152a	0.09964974
175	0xbda68903	-0.08131602
176	0x3e8c32af	0.2738242
177	0x3dd6e6d8	0.10493249
178	0x3e0304f6	0.12794861
179	0x3d895738	0.06706089
180	0xbd206aa9	-0.03916422
181	0xbda40b46	-0.08009963
182	0xbeb645cf	-0.35600135
183	0x3db4b56b	0.08823665
184	0x3dd33840	0.10313463
185	0xbd2f958b	-0.042867225
186	0xbf0925da	-0.5357338
187	0x3dec0f5c	0.11526367
188	0x3e01223b	0.12610714
189	0xbeadd8ce	-0.3395447
190	0xbe354628	-0.17702544
191	0xbe83fd22	-0.25779063
192	0x3e5b5ea2	0.21422818
193	0x3da8864a	0.082287386
194	0xbe146a68	-0.14493716
195	0x3e081a42	0.13291267
196	0x3e91955b	0.28434262
197	0xbe0b2c1b	-0.13591044
198	0x3d233768	0.03984776
199	0xbe56187d	-0.20907779
200	0x3e4a7624	0.1977163
201	0x3e579696	0.21053538
202	0xbe91a3f4	-0.284454
203	0x3c898b69	0.016790109
204	0xbd7b9bcd	-0.06142788
205	0xbdbbb225	-0.09164838
206	0x3bed2201	0.0072367196
207	0xbe06392e	-0.1310775
208	0xbdb3f76c	-0.08787426
209	0xbcbbcf01	-0.022925856
210	0x3d00d029	0.031448517
211	0x3e101909	0.1407205
212	0xbe373fa1	-0.17895366
213	0x3e6518d5	0.22372754
214	0xbe3836ca	-0.1798965
215	0xbebcd4d3	-0.36881122
216	0x3dcbc562	0.09949757
217	0x3e8b4dad	0.272077
218	0xbe9f5e62	-0.31126696
219	0x3da79c09	0.08184058
220	0xbce4e7e1	-0.0279426
221	0xbe1859af	-0.14877962
222	0x3d0c914f	0.034318265
223	0x3a9e8c47	0.0012096249
224	0xbd872367	-0.06598549
225	0x3e152e65	0.1456848
226	0xbce095fb	-0.027415266
227	0x3ec4d291	0.384419
228	0xbdf210df	-0.11819624
229	0xbcef52c8	-0.029214278
230	0x3de04755	0.109511055
231	0x3e6e6a97	0.23282848
232	0xbde400dd	-0.11132977
233	0x3dacabe7	0.08431225
234	0xbe03796f	-0.12839292
235	0xb9a53f6b	-0.00031518503
236	0xbe2aee2c	-0.16692418
237	0x3e071fa7	0.13195668
238	0xbe8aa61b	-0.27079853
239	0xbd2f3111	-0.042771403
240	0x3d02b466	0.031910323
241	0x3c87fe50	0.016600758
242	0x3e3fa82f	0.187165
243	0x3e54dbbc	0.20786947
244	0x3d06ec55	0.032940228
245	0xbe0c287c	-0.13687319
246	0xbe78f69a	-0.24312821
247	0x3d793f57	0.06085142
248	0x3e57877a	0.21047774
249	0x3e028ca3	0.12748961
250	0xbe7eb7a6	-0.24874744
251	0xbdc9f060	-0.09860301
252	0x3dc6b9cd	0.097034074
253	0xbda9c602	-0.0828972
254	0xbe21890f	-0.1577494
255	0xbd1e86aa	-0.038702644

arith.constant3 f4 [40]
0	0x3b92e656	0.0044830246
1	0x3c6366e1	0.013879509
2	0x3c2e685c	0.010644998
3	0x3d0e39d5	0.03472312
4	0x3d2b5bb4	0.0418355
5	0xbd98f4b8	-0.074685514
6	0x3ddb70b4	0.10714856
7	0x3cdacad4	0.026708044
8	0x3ca0f185	0.019646415
9	0xbd929e3f	-0.07159089
10	0x3d860c6d	0.06545339
11	0x3e13c37d	0.14430042
12	0xbc4f322b	-0.012646238
13	0xbc2f3b99	-0.0106953615
14	0xbcb97514	-0.022638835
15	0x3e050436	0.12989888
16	0xba65f528	-0.0008772188
17	0x3cf2a12d	0.02961787
18	0x3ddcf626	0.107891366
19	0xbdbbacb5	-0.091638006
20	0x3de93205	0.113864936
21	0x3d0d7e25	0.03454413
22	0xbd04a811	-0.032386843
23	0x3d70bb25	0.058772225
24	0x3db615c2	0.08890869
25	0x3d398730	0.04529494
26	0xbd339de2	-0.04385174
27	0x3ca1c145	0.019745478
28	0x3dd9555b	0.106119834
29	0x3db9cc9f	0.090722315
30	0x3def1a81	0.11674977
31	0xbb7cbb5b	-0.003856382
32	0x3c82da2e	0.015973177
33	0x3d8574a9	0.06516392
34	0x3d4fa4ff	0.050694462
35	0x3d0408a0	0.032234788
36	0x3de2dd7c	0.11077401
37	0xbd679bcd	-0.056545068
38	0x3de746eb	0.112928234
39	0xbbc85bd5	-0.006114463

sequential_1_1/dense_3_1/BiasAdd/ReadVariableOp f4 [64]
0	0xbd58e097	-0.05294856
1	0xbe3052fb	-0.17219155
2	0xbd219889	-0.03945211
3	0x3c47e52c	0.012200635
4	0xbcf050b3	-0.029335355
5	0xbd6a03fb	-0.057132702
6	0x00000000	0.0
7	0xbdfa7dae	-0.12231003
8	0xbdafa1b3	-0.085757636
9	0x3d49bee5	0.049254317
10	0x3b5d6d14	0.003378694
11	0xbb56828d	-0.0032731623
12	0xbd41f9d6	-0.047357403
13	0x3d85dd25	0.065363206
14	0x3c81a73d	0.015826816
15	0x00000000	0.0
16	0xbe0738e1	-0.13205291
17	0xbd92f158	-0.07174939
18	0xbcd97fa5	-0.026550123
19	0xbd1c9723	-0.038230073
20	0x3d741353	0.05958874
21	0xbe2a7691	-0.16646792
22	0x00000000	0.0
23	0xbde5e1d1	-0.11224712
24	0xbc0b1d60	-0.00849089
25	0xbe052017	-0.13000523
26	0x3d3767b9	0.044776652
27	0xbd07b71e	-0.03313362
28	0x3d149ea4	0.036284104
29	0xbd8d6f7c	-0.069060296
30	0xbdb86e5c	-0.090054244
31	0xbd411f5b	-0.047149044
32	0xbd14de9d	-0.036345113
33	0xbcdedfab	-0.027206263
34	0x3d953e96	0.07287328
35	0xbc2defc9	-0.010616251
36	0xbdd13ca6	-0.10216646
37	0x3dedc517	0.116098575
38	0x3c8b77eb	0.017024955
39	0xbaf4c019	-0.0018672972
40	0x3d6df7f9	0.058097813
41	0x3da73592	0.081645146
42	0xbd990361	-0.074713476
43	0x3dc6f203	0.09714129
44	0xbc90b256	-0.017663162
45	0x3c78b47a	0.015179748
46	0x3c89cc1b	0.016820958
47	0x3ddd26eb	0.10798439
48	0xbd823f93	-0.06359782
49	0x3c170bde	0.009219138
50	0xbd948b4d	-0.07253132
51	0xbe094346	-0.13404569
52	0x3cdc5bd1	0.02689925
53	0x00000000	0.0
54	0x3cdb8f71	0.026801797
55	0xbbaf6c10	-0.005353458
56	0x00000000	0.0
57	0xbd084ae2	-0.03327454
58	0xbdc5c009	-0.096557684
59	0x3d4a7938	0.04943201
60	0xbdc6afc7	-0.097014956
61	0x3d4811d2	0.04884512
62	0x3dd36990	0.10322869
63	0x3db5dc5c	0.08879921

sequential_1_1/dense_3_1/MatMul f4 [64, 10]
0	0x3e721572	0.23640993
1	0xbea1c173	-0.31592903
2	0x3e0a4273	0.13501911
3	0xbe69dc39	-0.22837915
4	0x3b8a1d99	0.004214954
5	0xbda36d82	-0.07979871
6	0xbe66bdcc	-0.2253334
7	0x3d4b1c0e	0.049587302
8	0x3c8d65a3	0.017260378
9	0x3a9a3c38	0.0011767214
10	0x3dabbba9	0.08385403
11	0x3ebdce1e	0.37071317
12	0x3d9a682d	0.07539401
13	0xbd6d13e7	-0.05788031
14	0xbec0fc48	-0.37692475
15	0x3df6a884	0.120438606
16	0xbda286f9	-0.079359
17	0x3e9a833b	0.30178246
18	0x3e1493bc	0.14509481
19	0x3e5ad90b	0.21371858
20	0x3e677c75	0.2260607
21	0xbdc3994f	-0.09550726
22	0x3e7bc9bb	0.24588673
23	0xbde49551	-0.11161292
24	0x3e5dae50	0.21648526
25	0x3cb793ee	0.022409406
26	0xbe022d10	-0.12712502
27	0x3e30db41	0.17271139
28	0xbdc1b956	-0.09459178
29	0x3c248129	0.01004056
30	0xbc1c80a3	-0.009552154
31	0x3ef149aa	0.47126514
32	0x3d9d5bd3	0.0768353
33	0xbde5453b	-0.11194845
34	0xbe33b47d	-0.1754932
35	0xbdb824c0	-0.089913845
36	0xbd88d7a0	-0.06681752
37	0xbd108538	-0.035283297
38	0x3da68749	0.08131272
39	0x3e166eae	0.14690658
40	0x3b963908	0.0045844354
41	0x3f026173	0.50929946
42	0x3df87d1b	0.12133237
43	0xbda0c573	-0.078501604
44	0xbe86d4ec	-0.26334321
45	0xbe31e123	-0.17371039
46	0x3e08612e	0.13318321
47	0x3e132d58	0.14372766
48	0x3e17e7b3	0.1483448
49	0xbe15b638	-0.14620292
50	0x3e414385	0.18873413
51	0x3ebdb24b	0.3705009
52	0xbe197029	-0.14984192
53	0x3bebe85a	0.0071993293
54	0x3d81eaf7	0.06343644
55	0x3ead6266	0.33864135
56	0x3c50888e	0.01272787
57	0xbe4f0308	-0.20216
58	0xbdadb650	-0.08482039
59	0xbe162cff	-0.14665602
60	0xbe41ddde	-0.18932292
61	0x3dc97b38	0.09837955
62	0xbe8a0d6c	-0.26963365
63	0xbe62320d	-0.22089405
64	0xbdd882b0	-0.10571802
65	0xbe849042	-0.2589131
66	0x3e4cada6	0.19988117
67	0x3e49cbb6	0.19706616
68	0xbe2090e3	-0.1568027
69	0xbe5f0fe2	-0.21783403
70	0xbe235a30	-0.15952373
71	0xbf04da12	-0.5189525
72	0xbf0ff1ae	-0.5622815
73	0xbe0860d6	-0.1331819
74	0x3e806dad	0.25083676
75	0xbd89718e	-0.06711112
76	0xbd3c3c36	-0.04595586
77	0xbe798c11	-0.24369837
78	0x3d88addc	0.06673786
79	0xbeb3055f	-0.34965035
80	0x3e0443c4	0.12916476
81	0xbe583f6e	-0.21117947
82	0xbd3cefb5	-0.04612704
83	0x3ed4b3c9	0.41543415
84	0xbe84bc1b	-0.25924763
85	0xbe3baec7	-0.18328391
86	0xbe84b187	-0.25916693
87	0x3e31c35e	0.17359683
88	0xbe555c15	-0.20835908
89	0xbc00d298	-0.007862709
90	0x3e61677f	0.22012137
91	0xbe152778	-0.14565837
92	0xbc418a5f	-0.011812775
93	0xbd2ae9e1	-0.04172695
94	0xbe9c47fe	-0.30523676
95	0x3d0bec0f	0.03416067
96	0xbb53b988	-0.003230663
97	0x3e077cb0	0.13231158
98	0xbdfc4c63	-0.12319257
99	0x3e21c2a8	0.15796912
100	0xbe0c0ee6	-0.13677558
101	0x3e7cdb7e	0.24693105
102	0xbe6280cb	-0.22119443
103	0xbe544024	-0.20727593
104	0x3de023ef	0.10944354
105	0x3db55d50	0.088556886
106	0x3e3d22d3	0.18470316
107	0xbc827600	-0.015925407
108	0x3dd67da9	0.104731865
109	0x3dfc3c2c	0.123161644
110	0x3c1ac18b	0.009445558
111	0x3ec51f41	0.38500407
112	0xbd2df884	-0.04247333
113	0xbd015465	-0.031574626
114	0x3e366f29	0.17815842
115	0xbb5585b8	-0.0032580923
116	0xbd1114b4	-0.035420135
117	0xbcd1ccc5	-0.025610337
118	0xbcb220c9	-0.021744149
119	0xbcbbd63b	-0.022929301
120	0xbd873953	-0.066027306
121	0xbe59e38c	-0.21278208
122	0xbf03c962	-0.5147916
123	0xbd562c5a	-0.05228839
124	0xbde46cdb	-0.11153575
125	0x3d00947f	0.031391617
126	0xbeafef00	-0.3436203
127	0x3e3092c1	0.17243482
128	0x3e1cbd65	0.15306623
129	0x3b9aa5bf	0.0047194655
130	0xbd12a9cb	-0.03580646
131	0xbe89e2ee	-0.26930946
132	0x3e8c0174	0.2734486
133	0x3e4b310a	0.19842926
134	0x3b41735c	0.0029518222
135	0xbe908918	-0.28229594
136	0x3eb2cf12	0.34923607
137	0x3e8276d6	0.2548129
138	0xbe373158	-0.17889917
139	0xbde895a4	-0.11356667
140	0xbe6d1cbf	-0.23155497
141	0x3f092018	0.53564596
142	0x3d44f854	0.048088387
143	0xbdb52695	-0.088452496
144	0xbdf1cdba	-0.11806817
145	0xbe2cd429	-0.16877808
146	0x3de87b8a	0.11351688
147	0x3da2f239	0.079563566
148	0x3dc59e90	0.09649384
149	0x3dbe0145	0.09277586
150	0xbe8861f2	-0.26637226
151	0xbd6a8410	-0.05725485
152	0xbc9c6610	-0.019091636
153	0x3e01d230	0.12677836
154	0x3dbd2850	0.092362046
155	0xbe2c3f84	-0.16821104
156	0xbe79bce0	-0.24388456
157	0xbe8f3f76	-0.27978104
158	0xbe62b282	-0.22138408
159	0xbe820b62	-0.2539931
160	0x3dc26ce2	0.09493424
161	0xbe68484a	-0.22683826
162	0x3bbae95e	0.005704089
163	0x3ea562df	0.32301995
164	0xbe3c08aa	-0.1836268
165	0xbec8def4	-0.392326
166	0x3d4aad5c	0.049481735
167	0x3e0a5a8c	0.13511103
168	0x3cabd37a	0.020974863
169	0xbdd31af5	-0.10307876
170	0xbbdd9ac3	-0.006762834
171	0x3df6a58f	0.120432965
172	0x3e5a099a	0.21292725
173	0x3db5f335	0.08884279
174	0xbe3dccf0	-0.18535209
175	0xbe95434c	-0.29152906
176	0xbec46a07	-0.38362142
177	0xbdd16ad4	-0.10225454
178	0xbe7000b3	-0.23437767
179	0xbda4b487	-0.08042245
180	0x3e1bdf0f	0.15221809
181	0xbebd4cad	-0.3697256
182	0x3dbbd862	0.09172131
183	0xbe3adc2e	-0.18248054
184	0xbe8db4ce	-0.27677006
185	0x3e3dfb0f	0.18552803
186	0xbd1fd5d3	-0.039022278
187	0x3e84b4b5	0.2591912
188	0x3c24dae7	0.010061956
189	0xbda7b833	-0.0818943
190	0xbe44b014	-0.19207793
191	0xbe9aa097	-0.30200645
192	0x3a1d750d	0.00060065166
193	0x3e98b2e4	0.29823983
194	0xbe449ec2	-0.19201186
195	0xbdb8b314	-0.090185314
196	0xbc6295d6	-0.013829669
197	0xbd15f023	-0.036605965
198	0x3c24ed1a	0.010066295
199	0xbe5959ac	-0.21225613
200	0xbde061aa	-0.10956128
201	0x3efb99f6	0.491409
202	0x3e29a755	0.16567738
203	0x3c100466	0.008790111
204	0xbddef4e4	-0.10886553
205	0x3e0cc83c	0.13748258
206	0x3e198358	0.1499151
207	0xbe1fd935	-0.15610202
208	0x3d482621	0.048864488
209	0x3e3a486f	0.18191694
210	0xbcaaa8a5	-0.02083237
211	0xbdcd5abd	-0.100270726
212	0x3e3d26cf	0.18471836
213	0x3e964a76	0.29353684
214	0x3dcc58c0	0.09977865
215	0x3c98ce8f	0.018653182
216	0xbe31ab5d	-0.17350526
217	0x3d8d1244	0.068882495
218	0x3db3ea50	0.08784926
219	0x3dae90d3	0.08523717
220	0xbe6ba282	-0.2301121
221	0xbe378f4b	-0.17925756
222	0xbc8a4560	-0.016878784
223	0x3e782fca	0.2423698
224	0xbe8920ba	-0.2678278
225	0xbca3d150	-0.019997269
226	0xbc43b100	-0.011944056
227	0x3e4fffe4	0.20312458
228	0xbe2933d8	-0.16523683
229	0x3e09c8de	0.13455531
230	0xbea1fcae	-0.31638092
231	0x3edd5fba	0.43237096
232	0x3e90a2e0	0.28249264
233	0xbea31612	-0.31852776
234	0x3e6d580f	0.23178123
235	0x3e6d2d63	0.23161845
236	0x3e68b196	0.22723994
237	0x3e37343a	0.17891017
238	0xbec19e4d	-0.37816086
239	0xbdb00c82	-0.08596136
240	0xbda5b929	-0.08091957
241	0xbe669643	-0.22518258
242	0xbe43759a	-0.1908783
243	0x3d074746	0.033026956
244	0xbe373087	-0.17889605
245	0xbe1ca8af	-0.15298723
246	0x3e3c328d	0.18378659
247	0x3dc0548b	0.09391125
248	0xbddb175a	-0.10697813
249	0x3e7990e7	0.24371682
250	0x3e322383	0.17396359
251	0xbec4511e	-0.38343138
252	0x3caa8eec	0.020820104
253	0x3e15583f	0.14584444
254	0x3d3ca1ce	0.046052746
255	0xbe0b1afd	-0.13584514
